model.pth (torch, 436179 bytes, 44 tensors)

model.0.conv.unit0.conv.weight f4 [4, 1, 3, 3]
00000000: 86cb 3b3e c1a7 e9bd 8e00 153e 8137 4d3e
00000010: ce20 edbd cda4 4f3d 333b e73d c709 243e
00000020: ffa3 113e 8a20 08bd fe5f b9bd ab25 15be
00000030: 4820 57be 0781 d5bd 752a 52be 8ab1 c33d
00000040: b724 b7bd 49bf 97bc 4f7f ec3d 2a8b 50be
00000050: 6ee1 76bd e83b 8cbe 1c49 02be 2fb7 0abe
00000060: 5364 8d3d 4b0e 1dbe d7d1 6fbd 8c5d 463c
00000070: 1e98 4ebd ad67 10be 4b77 213e d806 89bd
00000080: 4114 653e 1f89 01be 4fee fbbc df0f 063e
0.18339357 -0.1140895 0.14550993 0.20040704 -0.115785226 0.050694276 0.11290588 0.16019355
0.14222716 -0.033234157 -0.09051512 -0.1456515 -0.21008408 -0.10425001 -0.20524009 0.09555347
-0.0894255 -0.018523829 0.1154772 -0.20365587 -0.06027358 -0.27389455 -0.12723202 -0.13546441
0.06903901 -0.15337484 -0.05854973 0.012107264 -0.05043804 -0.14102049 0.15768163 -0.066907585
0.22371008 -0.12649964 -0.030753283 0.13091992

model.0.conv.unit0.conv.bias f4 [4]
00000000: a21e bcbd 2647 053e b890 1ebd 4da9 d3bd
-0.0918553 0.13015422 -0.038712233 -0.10335026

model.0.conv.unit1.conv.weight f4 [4, 4, 3, 3]
00000000: d35d 613d 4ea0 a9bd 6926 f1bd 5312 1c3d
00000010: 6f5c 24bd 5afb 0bbe ca98 9b3d cb2b 68bc
00000020: 8b49 aabd a2e2 d3bc 43d1 27bd 5685 8b3d
00000030: 662a a73d 81f2 c6bc e90c 613d 8c18 f13c
00000040: b05f 0f3d 09ef ab3b 1d01 a23c ab2c 4d3b
00000050: 1c2b 3e3c 1c83 56bd 587d 873d a453 82bd
00000060: 309a c33c 41a0 a5bc 2dff c53c 019c 90bd
00000070: 180d c2bd 828a 1f3d 2846 c1bd cbbb 0dbd
00000080: 87cd 36bd 02b9 a8bd 3fcf a6bd 4994 ea3d
00000090: 7d83 93bd 2d04 73bd 2486 e8bd 9e89 adbd
000000a0: 4ba8 cabd 2bfb 80bd 3127 b7bd 4277 6ebc
000000b0: f603 5abd 7e7a 55ba 2441 3c3c 9899 9fbc
000000c0: 132b a9bd 4be9 703b f774 62bd 6add b0bd
000000d0: c885 11bd 881e a7bc 53ec debc ac36 bfbd
000000e0: 39bb a3bd 81ea 58bd 2683 2bbd 512f 8c3c
000000f0: 3bba f6bb c9c0 27bd c6de 8cbd 1ed1 1b3d
00000100: 78c5 be3c 082b 193d ac78 253c 4d18 a9bd
00000110: a8c8 ec3c f5e5 eabd 7ceb 4a3d 7f51 f0bd
00000120: 989e b93d cd92 063c de4a c13c 2b55 f33c
00000130: 2c97 1d3d 681e 783d de0c 983d 9fdd e43c
00000140: 3f19 373d 20ba dc3c 313a 0abd 0174 61bd
00000150: a2f0 fcbc 4dab aebb 18eb 943d 5425 c7bc
00000160: 0723 943d c984 0a3e 290c 28bd a268 153e
00000170: 6d05 243d 7952 973d 9eda 9fbd d8b0 353c
00000180: 9b86 133e 88d2 5c3d 408e 113e c10a e13c
00000190: d189 393d 044b 553d bde1 9d3d 70eb 933d
000001a0: 1beb 923d d22b 673d 73e9 b83d a77b 43bd
000001b0: ba93 2d3d 645e 75bd 1a46 23bb 9aa6 87bd
000001c0: df01 223d 4ccc 4d3d c004 66bd e563 ce3c
000001d0: d0de 45bd 79ac 44bc 2536 efbd 7482 e6bd
000001e0: ead1 b4bd f50a 8c3c d401 2bbe f8b9 b4bd
000001f0: 215f 2dbe 2eeb 94bd a803 89bd 65e5 ebbc
00000200: 1e17 063d 7579 f93b 739d 763d 25a1 fdbd
00000210: e6bf 9fbd e00e 74bd cee2 eabd 5e69 463d
00000220: bc34 543b 5238 cf3c 4f2a 16bd 305a d33c
00000230: d600 6d3d 1a0d ca3b af65 febc 086f 893c
0.05502112 -0.08282529 -0.11774904 0.038103413 -0.040127214 -0.13670102 0.075975016 -0.014170597
-0.083148085 -0.025864903 -0.040971052 0.06812541 0.08162384 -0.024285557 0.054943953 0.02943065
0.035003364 0.005247001 0.019775921 0.0031307142 0.011606958 -0.05237113 0.06615704 -0.063636094
0.023877233 -0.020218017 0.024169529 -0.070610054 -0.09475154 0.03895045 -0.09437209 -0.03460292
-0.0446296 -0.082384124 -0.08144998 0.114540644 -0.07202814 -0.059330154 -0.1135371 -0.08473514
-0.098953806 -0.062979065 -0.08943022 -0.0145548005 -0.053226434 -0.0008143558 0.01149014 -0.019482419
-0.08260169 0.0036760147 -0.055287328 -0.086359814 -0.035527974 -0.0204003 -0.027212298 -0.093366
-0.07994694 -0.052958015 -0.04187312 0.017112406 -0.0075295246 -0.04095534 -0.06878428 0.038041227
0.02328752 0.037394553 0.010099571 -0.08256588 0.028904274 -0.11469642 0.04954098 -0.11734294
0.090634525 0.008213711 0.02359527 0.029703697 0.038474247 0.060575873 0.07424329 0.027937708
0.04470181 0.02694422 -0.033746902 -0.05504227 -0.030876461 -0.0053304792 0.07271403 -0.024309792
0.072332434 0.13527216 -0.04102722 0.14590696 0.040044237 0.07388777 -0.0780537 0.011089526
0.14406817 0.053911716 0.1421442 0.027470948 0.045297448 0.052073494 0.07709072 0.072226405
0.07173749 0.056438275 0.09028902 -0.047725346 0.04237721 -0.05990447 -0.002491361 -0.066235736
0.039552566 0.05024366 -0.056156874 0.025194118 -0.048308194 -0.012004011 -0.11680249 -0.11255351
-0.088291004 0.017095068 -0.16699916 -0.08824533 -0.1693082 -0.072714195 -0.066901505 -0.028795907
0.03273689 0.0076133558 0.06020875 -0.123842515 -0.078002736 -0.0595845 -0.11469041 0.04844033
0.0032380065 0.02529541 -0.036661442 0.02579984 0.057862125 0.0061661126 -0.031054346 0.016776577

model.0.conv.unit1.conv.bias f4 [4]
00000000: 4dd7 1ebd 5265 bcbd 16f9 183d 7ed3 76bd
-0.038779546 -0.09199013 0.03734692 -0.06026029

model.0.residual.weight f4 [4, 1, 3, 3]
00000000: 677d f3bd 8117 713c 3a8b 243e 3bad 783e
00000010: bdc8 263e 2ec2 843e 76e2 813e 51de 643e
00000020: 8cf4 ec3c 6951 4bbe c21d db3d 8f87 70bd
00000030: 4f9d b1bd da3a 913d 54db 653d e122 83be
00000040: 323d 143e 872f 003d 2836 ed3d bcc9 e23d
00000050: 5858 af3d 56d1 373d ce66 3cbe 7369 6ebe
00000060: 1251 ac3d dd6f 8a3c 1cff 56be c9e3 f4bc
00000070: 3814 d5bd 3bd5 6ebd 05ab ab3d c37f ab3d
00000080: 306a 233d 2d30 db3c 641b d13d 77e2 cdbd
-0.11889153 0.014715076 0.16068736 0.24284832 0.16287513 0.25929397 0.25368088 0.22350432
0.028925203 -0.19855274 0.10699035 -0.05872303 -0.08672582 0.07091303 0.05611737 -0.25612548
0.14476469 0.031295326 0.11582595 0.11073634 0.08561772 0.044877373 -0.18398592 -0.23282413
0.084139004 0.016899044 -0.20995754 -0.029893773 -0.10404247 -0.05830882 0.08382229 0.08373978
0.03989619 0.02675637 0.102103025 -0.1005296

model.0.residual.bias f4 [4]
00000000: cc13 163e ab44 9d3d ed0a 10be 9c27 ba3d
0.1465599 0.07679113 -0.14066668 0.09089586

model.1.submodule.0.conv.unit0.conv.weight f4 [8, 4, 3, 3]
00000000: 7dc6 e7bc 4bb8 883d 40db 52bd 820a e13c
00000010: 158b 583c 4f12 8ebd 3155 813d 7fab 183d
00000020: 348e 5c3d 97e2 053e a63b cc3d 6bbd 053d
00000030: add5 a43d 6a90 3c3d 852b 9c3c 2031 d03c
00000040: 1641 c93d 4c51 fe3d 1e38 9c3b ddaa 703d
00000050: 75e3 6e3d dcaa 1fbd 1cfc 93bd 8114 c63d
00000060: 0a81 c63c 4e83 43bd d6cf 31bd 2223 aabd
00000070: 0740 2cbd 1a8c 9f3c 3025 c2bd 7768 f3bd
00000080: 2d76 04be a2d5 99bd 953c 893c f794 523c
00000090: ec63 c63d 4581 233d ba93 68bd 1236 f9bb
000000a0: 73a6 3e3d 4b97 923d d762 e23d 081e f8bc
000000b0: 5288 f43d ac54 383c b516 aebd cf62 9c3c
000000c0: 381c 81bc ffba 95bd 74ee 99bd cee0 f5bd
000000d0: 8d3b af3c 0f64 38bd 1af0 ac3d 77e1 44bd
000000e0: 602f 603d f647 59bc aefd b23b ed09 bd3d
000000f0: a222 f73d e42e d2bc df0c d53d 51c7 093d
00000100: c9f5 da3c 966d 313d da84 903c 1053 00bd
00000110: fdac 8ebd 328c 9b3c b4f2 3f3d e8e0 463d
00000120: 8a1a 24bd e5ef e03c c0e4 e63c dfc7 3d3d
00000130: 1886 70bd b96c 22bd bb3f 3abd 40e8 33bd
00000140: d15e 4cbc 2433 993d 332b ef3d ecb3 78bc
00000150: 79c4 a0bd 720a af3d 5612 ee3d 9955 1bbd
00000160: 1e1f 1ebd f178 da3d 2c0b b336 307c 423d
00000170: 784a 303d 8e3d b6bd c05f f83b 5590 91bd
00000180: eba5 d7bd 9532 aabd 65f0 31bd ec70 8b3d
00000190: 0297 923d 06c4 36bc 5e0e b53d 8365 12bd
000001a0: 805e b03b d514 82bd 2ab2 07bd e69a 4dbd
000001b0: 474a e7bc c92e a53d 75f4 97bd 8555 413d
000001c0: b601 c33d ad7b 5a3d 7869 45bc b79e 3abd
000001d0: 3caf f8bc e1c2 05be 76d3 b3bd 27fe efbd
000001e0: cc1d c3bd 080e 7bbd 948c ddbd f5d0 eabb
000001f0: 060f 8fbd 3bde 97bd 0c4d 683d 4efa f53c
00000200: 9e3e 873c cf8e 72bd d9e8 4d3d e1e1 c83d
00000210: 553e 6f3d bde0 01bd d250 3cbc a793 6fbd
00000220: e9fe c33c 30e4 203d d598 833d b80d f4ba
00000230: 7347 8f3d fddf c13c a968 6cbd 9fa8 463d
00000240: f043 e03d f34e 4abd 0fec e43c ec1f 08bd
00000250: 78dc df3d 0178 9bbd ead5 3d3c 1638 a53d
00000260: f9d3 73bd 81ac b43d c7b8 683d fb41 b6bc
00000270: 06f6 023e c7eb 0ebc 6d9e 803c 54df c43d
00000280: bfaa bcbc 6b26 dd3d fe20 9dbb de01 9fbd
00000290: 03b2 dbbb b8fc cb3b 59aa 25bd 498d b0bd
000002a0: 8600 663d b408 963d 8d69 8ebd 5b4f bebc
000002b0: 6a02 81bd 74c8 b9bd b834 14bd 1ece 17bb
000002c0: 36e5 a8bc f87b 97bd cfba 7dbd 8e29 833c
000002d0: 55ef 15bd 50d1 c8bc c5ec 6ebd 1816 b03d
000002e0: 0baf cf3d a356 c43d 165a 5b3d 02d1 8f3d
000002f0: 0f3f 113d 4e40 cfbc 506b 90bd 9923 733c
00000300: b1f4 84bd 7fa0 f7bc 8601 b5bd 6324 98bd
00000310: 9c8b ebbd 3cae bbbc a529 cf3d 811d 053c
00000320: 11dd f43d dd7d f83d 7d04 f93d 8373 14bc
00000330: 122b 9b3d dc53 ad3d cafd d83c df62 8d3d
00000340: 2363 06bd 7f93 5ebd 9bfb 47bc b8ff 903d
00000350: 8c33 043d f3c1 dfbc ce22 01bd d2f7 013d
00000360: bb76 ffbc dced 85bd 49e5 90bd 6c5a c13d
00000370: 5b59 83bd 0448 9cba 0984 2e3d c1d8 8e3d
00000380: 0f6b 853d acba c93c 05fd fd3b bf22 cf3d
00000390: 875c 0ebd 2157 8abd 93a0 a43d c7ee c93d
000003a0: 6cd7 813d 8ad5 3c3c 5e99 0dbd f4ea 543d
000003b0: 42ec babc a5d6 4ebd 56dc f33b c758 c03d
000003c0: f9d7 42bd 75c0 c23d ea04 ec3b cb35 2cbc
000003d0: c7fd 16bd 327e 803d 8dce 86bd f176 e13b
000003e0: abcd 1fbd a81e 3e3d 695d 983c cc0f 22bd
000003f0: 487f e03b d4cb 653c 65a2 c43d 4501 6fbd
-0.028292889 0.06675776 -0.051478624 0.02747083 0.0132167535 -0.06937086 0.06315077 0.037272926
0.053846553 0.13074718 0.099723145 0.032651346 0.08048568 0.04603616 0.01906372 0.02541405
0.09826867 0.1241785 0.004767432 0.058756698 0.05832239 -0.038981304 -0.072258204 0.096718796
0.024231452 -0.047732644 -0.0434111 -0.08307482 -0.04205325 0.019475985 -0.09479749 -0.118851595
-0.12935705 -0.0751145 0.01675252 0.012852899 0.09687027 0.039918203 -0.056781508 -0.0076053226
0.046545457 0.07157763 0.110540085 -0.030287758 0.119400635 0.011250656 -0.08500425 0.019090084
-0.015760526 -0.07311057 -0.075161844 -0.12005769 0.0213907 -0.0450173 0.08444233 -0.048066583
0.05473268 -0.013261786 0.00546237 0.09230409 0.120671526 -0.025657125 0.104028456 0.03363735
0.026728528 0.0433174 0.017641474 -0.031329215 -0.06966589 0.018987749 0.04686232 0.04855433
-0.040064372 0.02745814 0.028185248 0.04633319 -0.05872163 -0.039654467 -0.045470934 -0.043922663
-0.012473778 0.074804574 0.116781615 -0.0151796155 -0.07849974 0.08546914 0.11624591 -0.03792343
-0.038603894 0.10667599 5.3359163e-06 0.047481716 0.04303977 -0.088984594 0.0075797737 -0.07107607
-0.10529693 -0.08310429 -0.04344215 0.068086475 0.07157709 -0.011155134 0.08840631 -0.03574134
0.005382359 -0.0635163 -0.033128895 -0.05019655 -0.02823366 0.08065564 -0.07419673 0.0472007
0.09521811 0.053340603 -0.0120490715 -0.04556152 -0.030356996 -0.13062622 -0.08780567 -0.117183976
-0.09527168 -0.061292678 -0.10817829 -0.007166023 -0.06985287 -0.07415434 0.056714103 0.030026581
0.01650935 -0.059218224 0.05027089 0.09808708 0.058409054 -0.031708468 -0.011493878 -0.05849042
0.023925262 0.039280117 0.06425635 -0.0018619811 0.0699605 0.023666376 -0.057717 0.048500653
0.10950458 -0.049391698 0.027944593 -0.033233568 0.10930723 -0.07591248 0.011586646 0.08067338
-0.059528325 0.08821965 0.056816842 -0.022248259 0.12789163 -0.008723206 0.015700543 0.09612909
-0.023030637 0.10798343 -0.0047951927 -0.07764028 -0.0067045703 0.006225195 -0.04044566 -0.08620698
0.056152843 0.07325879 -0.06953726 -0.023231199 -0.062992886 -0.090714365 -0.03618309 -0.0023163627
-0.020617109 -0.07396692 -0.061945733 0.016011026 -0.036605198 -0.02451387 -0.05833127 0.08597964
0.10140809 0.09586837 0.05355271 0.07022287 0.035460528 -0.025299218 -0.07051718 0.01484003
-0.06491984 -0.030227898 -0.08838181 -0.07428815 -0.11501238 -0.02291023 0.10115365 0.00812471
0.119562276 0.121333815 0.12159059 -0.009060743 0.075765744 0.084632605 0.026488204 0.06903624
-0.032809388 -0.054339882 -0.0122059835 0.070800245 0.03227572 -0.027314162 -0.031527333 0.03173048
-0.031184545 -0.06539509 -0.07074983 0.09441075 -0.064135276 -0.0011923318 0.042606387 0.06974936
0.065145604 0.024625145 0.0077511095 0.10114049 -0.03475621 -0.067549 0.080384396 0.09859996
0.063399166 0.011525521 -0.03457009 0.05198188 -0.022817735 -0.05049767 0.0074420376 0.09391933
-0.04756925 0.095093645 0.0072027342 -0.010510872 -0.036863115 0.0627407 -0.06582365 0.006880634
-0.0390145 0.046415955 0.018599229 -0.039565846 0.0068511106 0.014025647 0.09601287 -0.05835082

model.1.submodule.0.conv.unit0.conv.bias f4 [8]
00000000: 3eb1 78bd ca3b fd3c e315 7ebd c133 1c3d
00000010: 624a 73bc 7e3b c2bd 63af f9b8 6828 c6bb
-0.060715906 0.030912299 -0.06203259 0.038135294 -0.014849277 -0.094840035 -0.000119059136 -0.0060472973

model.1.submodule.0.conv.unit1.conv.weight f4 [8, 8, 3, 3]
00000000: 7269 96bd 5745 7dbd dd37 98bd fbdd 6abc
00000010: db93 5b3c bf5b 5a3c 39e0 aebc a097 73bb
00000020: 8335 8ebd 9477 a3bd 281a 7f3c fb31 1bbd
00000030: 5f0c d73c b51c bcbd f9e1 de3b 9269 433c
00000040: cc88 1fbd 1f9f 5ebc a0db 533b 92e3 5abc
00000050: ad80 22bd 64e4 f43c b68e 843c 8e4c 68bd
00000060: d0dc 173d 3f26 cf3c 9d68 d2bc ca7a 7ebd
00000070: 25d1 0a3d 224e 05bd b9aa a6bc 6c75 b0bd
00000080: ec4a 593c 9f01 053d 675e c13c 5ae2 90bd
00000090: f578 00bd 3420 98bd 65a9 6dbd fdb7 e3bb
000000a0: 37bf b0bc 922a 1abd c8d4 0e3d 1640 07bd
000000b0: d5bf 43bc 3911 93bd fef9 95bd 9097 8dbc
000000c0: 5335 3bbd 0bbb 1ebd 97c9 1dba 63ee fcbc
000000d0: 1a4f c3bd e2c1 8e3a 8d31 b3bd f983 9d3c
000000e0: de34 a2bc d0de 0bbd 6c1a a7bc 3645 bfbc
000000f0: 7e26 3d3c d55b ac3c 2cda b1bd 442f cbbd
00000100: d22e 623c 0e50 dcbc 3a09 db3c 3ef4 1dbd
00000110: 4005 be3b 0a25 39bd 4e52 1ebc daeb 52bc
00000120: 77b9 82bd 8813 d0bd d969 b6bd 566e 1dbe
00000130: a463 8dbd eaaa 0fbe 3340 86bc 4b73 98bd
00000140: b5de 18bc 4e2b 0fbc b76b 173d eb0f ccbc
00000150: 51fe 223d 7752 85bc a56c 1e3d 225c 6cbc
00000160: 6817 faba 2c74 aa3d d49e e8bd b67a 353c
00000170: 8f3e a0bc 81bd 8bbc 85af f0bc d362 3d3c
00000180: 4805 ecbd ac79 9ebd ee19 6cbd 4795 f33c
00000190: d0fe b1bb 337c a03c ed1e 8c3d d17e f33b
000001a0: ee13 aebc 81ba ce3c 27dd 963d a871 c8bb
000001b0: afbd 79bd 4c86 46bd 9a07 9ebd d1e3 a1b9
000001c0: 905d e1bd a742 6bbd 3bf7 e5bc d9de dbbd
000001d0: ba66 03be 0252 6dbd a76a 3fbd 62eb 3d3d
000001e0: dd54 c53c 9606 143d 9ca3 60bc 1e9c 61bd
000001f0: 968c f7bc 3436 a73c b0ca 3e3d 493f eb3a
00000200: 4692 843d 6b82 8c3d 948c ccbc 6ac4 323d
00000210: fc62 37bd 908f 0b3d c523 363d f98f e5bd
00000220: 6edf 6f3c e1ad 343d 5533 c1bc 55d1 59bd
00000230: 0a1e 1dbd c8ab 9abd 6f64 6bbc cb98 43bd
00000240: d7d4 f13a cbbc 56bd a03e 3cbd dcf0 d0bd
00000250: d40a c4bc 5b39 80bd aaf9 65bd 8976 9bbc
00000260: 21f6 edbd f61f 39bd c202 7cbc bab0 bf3b
00000270: 5276 7cbd 183b 8d3c c998 653d fe68 dc3c
00000280: c335 213c 98e9 75bd f762 c0bd 4b91 92bd
00000290: 1b15 ed3c 7846 e9bd 893c f3bd b9bc e53c
000002a0: 7738 d2bc 0ea6 90bc b777 c73b 103e 833d
000002b0: 2ac0 2d3d 114b bbbc f7ca 603d 9ade 7dbc
000002c0: 9367 03bd 2d32 0e3d 3c63 91bc 5a62 4bba
000002d0: 247b 12be 31a0 99bd e766 5cbd 5b85 0dbd
000002e0: d438 a43c 4ce7 06bd adfd 0a3b 524a b6bd
000002f0: 8958 b8bd 38ac 983c 58ed 1dbd 43e2 94bc
00000300: 28f0 493d 2b48 183c b60a cebc 72a0 5fbd
00000310: f25a 023c 5eba a9bc 7659 22bc a405 74bc
00000320: a291 cb3c f804 f5bc 39aa febc 19ed 05bc
00000330: 8521 97bc 25a5 303c d982 553d af3f bcbd
00000340: 8929 0bbe 70f8 2e3c ae65 cdbd be77 18bc
00000350: 102f 82bc 0256 043b 60d6 c6bd 4ffd 8ebd
00000360: 8ad0 38bd 1074 c3ba 082a 29bd ac3f 1cbd
00000370: 7a9e 5d3d d01f 703c fe95 abbd 1338 e73c
00000380: 443a 46bd fbf4 6cbd 69ed 773c fdd5 1bbc
00000390: 6e60 5abd 4732 983c 24cb b3bc 2cae c13c
000003a0: 6fc3 413d 5920 da3a 5c62 953b be2c 0e3c
000003b0: a640 e8bd 8578 233c 41f7 84bd c7d0 b7bd
000003c0: e365 aebd 9fd5 cfbd b166 abbd 78fe d73c
000003d0: dfa7 3cbd c1b7 003d 5011 5cbd 811f 073d
000003e0: 9eac 733d 872a a4bd f7f5 bfbc 1ace 2d3d
000003f0: 37c0 3ebd c477 50bd c5ef cabd 4d51 3bbc
-0.07344331 -0.061833706 -0.0743253 -0.014335151 0.013401951 0.013327538 -0.021347152 -0.0037169233
-0.069438 -0.07981792 0.015570201 -0.037889462 0.026251016 -0.09185163 0.0068018404 0.011927025
-0.03894882 -0.013587742 0.0032326952 -0.013359921 -0.039673496 0.029894061 0.016181331 -0.056713633
0.037075818 0.025286792 -0.02568465 -0.06212882 0.033890862 -0.032545216 -0.020345079 -0.086161464
0.013262492 0.03247225 0.023604585 -0.07074423 -0.031365354 -0.07428017 -0.058022875 -0.0069494233
-0.021575553 -0.037638254 0.034870893 -0.0330201 -0.011947592 -0.07181019 -0.07323073 -0.017284185
-0.04570515 -0.038752597 -0.0006019114 -0.03087539 -0.09536572 0.0010891522 -0.087496854 0.019227969
-0.0198006 -0.034148037 -0.020398341 -0.023348432 0.011544822 0.021039883 -0.08684191 -0.099211246
0.013805108 -0.026893642 0.026737798 -0.038563006 0.0057989657 -0.04520134 -0.009663178 -0.012873614
-0.06383031 -0.10159975 -0.089069076 -0.15374121 -0.069037706 -0.14030042 -0.016388034 -0.074438654
-0.009330441 -0.008738352 0.03696796 -0.024909934 0.039793316 -0.016274674 0.03867783 -0.014426263
-0.0019080462 0.08322939 -0.11358419 0.01107662 -0.01956108 -0.017058136 -0.02938057 0.011559206
-0.11524445 -0.07738051 -0.057641916 0.029734267 -0.0054319873 0.019590473 0.06841836 0.007430889
-0.021249738 0.025235416 0.073664 -0.0061170645 -0.060971912 -0.04846792 -0.07716294 -0.0003087805
-0.11004174 -0.05743661 -0.02807199 -0.10735864 -0.12832156 -0.057939537 -0.04673257 0.046367057
0.024088318 0.036139093 -0.0137108825 -0.055080526 -0.030218404 0.020411588 0.046580017 0.0017947938
0.06473212 0.06860813 -0.024969377 0.043644346 -0.044772133 0.03407246 0.044467706 -0.11209101
0.014640672 0.044111136 -0.023584047 -0.05317815 -0.038358726 -0.07552296 -0.014367207 -0.047753137
0.0018450272 -0.05242614 -0.04595816 -0.1020219 -0.023930945 -0.0626094 -0.0561463 -0.01897742
-0.11619211 -0.045196496 -0.015381517 0.005849925 -0.061636277 0.017240092 0.05605391 0.026905533
0.009839478 -0.060037225 -0.09393876 -0.07156619 0.028940728 -0.11390394 -0.118767805 0.028044092
-0.02566169 -0.017657306 0.006087269 0.06408322 0.04241959 -0.022862943 0.054881062 -0.015494967
-0.032081198 0.03471582 -0.017747514 -0.0007758491 -0.14304787 -0.07501257 -0.053809073 -0.034551006
0.020046629 -0.032935426 0.0021208331 -0.08900894 -0.09001262 0.018636808 -0.038556427 -0.018174296
0.049301296 0.00929455 -0.025151592 -0.054596372 0.007956253 -0.02071875 -0.009909024 -0.014893923
0.024849717 -0.029909596 -0.031087028 -0.008174204 -0.0184486 0.010781561 0.05212674 -0.09191834
-0.13590063 0.010679349 -0.100291595 -0.0093058925 -0.015891582 0.0020192866 -0.097088575 -0.069819085
-0.045120753 -0.0014911909 -0.04129985 -0.03814666 0.054106213 0.014656022 -0.08378218 0.02822498
-0.04839541 -0.05785082 0.015132287 -0.009511468 -0.05331462 0.018578662 -0.021947451 0.023642622
0.04730552 0.001664172 0.0045588445 0.00867766 -0.11340456 0.009977465 -0.064924724 -0.08975368
-0.08515527 -0.10148167 -0.08369196 0.026366457 -0.04605853 0.03142524 -0.053727448 0.03298903
0.059490792 -0.08015924 -0.023432715 0.042432882 -0.04657003 -0.050895467 -0.09909014 -0.011432958

model.1.submodule.0.conv.unit1.conv.bias f4 [8]
00000000: 98e1 3fbd b8ff 3ebd 63fc 183d 232a 4ebd
00000010: c40e 10bc 646d 873d 023d 8cbd 097e 333c
-0.046846002 -0.04663059 0.03735007 -0.050333153 -0.008792583 0.066126615 -0.06847574 0.010955342

model.1.submodule.0.residual.weight f4 [8, 4, 3, 3]
00000000: 67bc c9bc 3006 153d ee97 313d 3ce0 2fbd
00000010: cc8b ff3c 88e0 4b3d c423 e939 2c9f d83d
00000020: 921c 9e3d c9c0 163d b16b a2bd b860 4dbc
00000030: f4cd 2ebc edc4 d4bc 3a8b bcbc e2e4 ebbc
00000040: 6f5c 11bc 94b4 a3bd 7719 c53c 11be b33d
00000050: 8dd6 8a3d 2e96 30bc 12a0 a73d 1b79 a03d
00000060: d15a 153c 6367 64bd ba20 cc3d 69de 793c
00000070: 9e13 78bd f6f5 b43d 9209 203d 41c1 d33a
00000080: e9d8 173d 8450 9d3c 1094 8ebd 8517 413c
00000090: 7731 ad3d 0863 4ebd 9444 b73d ce16 ec3c
000000a0: c0db df3d b149 513d a21c ed3c 3f51 273d
000000b0: ca10 c93d f410 86bd 91c3 aabd 861f 4dbd
000000c0: 7ebb dfbd 596f 63bd 727d 37bc fcc7 693d
000000d0: fdb3 e9bd 4676 b0bd c1b5 e63c ecf3 0a3d
000000e0: ea4d 973c 99ab 63bd 14d8 12bd 60bd e43b
000000f0: 1dac b5bd 09fc fdbb 2f23 ff3c 0c04 b7bd
00000100: e9aa 903c 539d 15bd 461a 843d 2128 843d
00000110: b3b1 f73a 0fb3 993d a91e 853d de54 5b3d
00000120: b247 b53d bbb8 89bc d008 ed3c fd72 5d3d
00000130: 49b3 d23c 9645 53bd 7df2 d9ba 1998 8d3d
00000140: d83f b5bc 8206 1dbe 301b ddbd 6324 a7bd
00000150: 4eb8 a0bd ea41 75bd 8cfd 0dbe e5d1 b2bd
00000160: c782 96bd 00b4 12be f7a1 78bd 07d5 12bd
00000170: 2a20 233d 5c1c 0ebc 1d08 953d cb96 c23c
00000180: 508b a93d 4342 c3bc 0364 81bd ebcd 6f3d
00000190: df60 203d 5d50 81bd 944c 86bd 3920 9bbd
000001a0: 2bb9 b13d 809c 943d 504b b73d c2df 313d
000001b0: 474e 6d3c bcfe a4bd 9781 b5bc b55e 26bd
000001c0: 349f f23c 34ad 513d 0888 d83d 1be1 f7bc
000001d0: c60a d73d 7ad7 b9bd e1d7 06be b42c efbd
000001e0: 17ba 55bd 0200 ddbd ce7c acbd efc6 7ebb
000001f0: 44a9 363c e188 e5bd f6b7 cbbc a52d 763d
00000200: 6270 c3bd f0b4 d3bc f832 913d d77c c8bd
00000210: fc01 e63c 4e6d 113b 5150 b3bb 60d1 3fbc
00000220: d3bc 7bbd 1699 c73d 20fe 923c 286a 983d
00000230: 133d fc3d b4c1 6b3d 1e59 0abd 357b 483d
00000240: 6c91 eebd 930b fcbc 6efc 42bd 4065 27bc
00000250: d85f 8c3c 22f3 53bd 5950 e2bd c9da 9cbd
00000260: 1a4a d7bd 0e54 fc3c d738 a23c 4ed9 e23d
00000270: cc4b 903d aebd 18bc eb72 0d3e 6dae f63d
00000280: b944 f63d 8a40 523c 8819 373d 034b 5ebd
00000290: 3345 75bd 4a0c f43c 719e 4c3d ae01 a5bc
000002a0: a314 093b b999 a13d 1d4d 873c 13e9 30bd
000002b0: ed7b 92bd d689 79bd 0b8e c93c 0263 003c
000002c0: ab6f 8ebc a36d 75bd 5d28 11bd 85b9 e73b
000002d0: 1087 1a3c 7936 dd3d ef3e 51bd b9f5 32bd
000002e0: b249 a13d ca52 aebc 2559 36bd 908c 4d3d
000002f0: 4bbc 52bd d16f 03bd a194 21bd ddfd 9a3d
00000300: b28c 373d 7c9f c1bc 5930 c63d ac73 823c
00000310: d268 8e3d c435 c43d aeae f33c 3c09 c63d
00000320: 354c 103d 5862 463d e31a 56bd fda1 9b3d
00000330: 9fcb c23d 4fa0 c13c cf77 edbc 60a7 043d
00000340: 75b5 b8bd 8d01 19bc de72 a0bd 3818 2bbc
00000350: 15ec 6a3d f70e 263c 98e3 843d 67e4 9abd
00000360: bba4 013d 9869 3dbd 5336 0c3d 80b4 dfbd
00000370: 2fae 63bd 9907 8d3d 3a57 693d 4d80 6cbd
00000380: e383 413b 5e55 8dbc 2f4f eebd 27a4 acbd
00000390: 34fb d83a e696 0fbe 5334 063d bf47 f4bd
000003a0: eb61 f4bd 549a a6bd d7b9 f23c e032 90bd
000003b0: 828f 803d a496 2d3d cde7 1b3d 3199 933d
000003c0: 10ab 9ebd e009 07bc 8fff 0a3d 456e 12bd
000003d0: ceec 4ebd 0a66 1fbc 454f 54bd 5a4d acbd
000003e0: ce00 983d 4b5a edbd 6fc2 c6bd 0e97 d4bd
000003f0: be83 25bb a891 62bc 30e9 643d 384d 9ebd
-0.02462597 0.036382854 0.043357782 -0.042938456 0.03119459 0.049774677 0.0004446787 0.105772346
0.07720293 0.036804948 -0.07930697 -0.012535267 -0.01066922 -0.025972808 -0.023015607 -0.028795663
-0.008872136 -0.07993427 0.024059994 0.08776487 0.067792036 -0.010777993 0.08184828 0.07835599
0.009115891 -0.05576266 0.099671796 0.015250781 -0.060565583 0.08835976 0.039071627 0.0016155617
0.037072096 0.019203432 -0.069618344 0.011785393 0.084567 -0.050387412 0.08948627 0.028819468
0.10930586 0.05109567 0.028944317 0.040848967 0.098176554 -0.06546202 -0.083380826 -0.05007889
-0.10924433 -0.05552611 -0.011199342 0.057075486 -0.11411283 -0.08616309 0.028162839 0.03392403
0.01846977 -0.05558357 -0.0358506 0.006980583 -0.08870719 -0.007750992 0.031144707 -0.08936319
0.017659621 -0.03652699 0.06450324 0.064529665 0.0018897563 0.07504856 0.064999886 0.053547733
0.088515654 -0.01681172 0.028934866 0.05406474 0.025720255 -0.051580034 -0.0016628053 0.06913776
-0.02212517 -0.15334514 -0.10796201 -0.08161237 -0.07847653 -0.059877314 -0.13866252 -0.087314405
-0.073491625 -0.14326477 -0.060701337 -0.03584769 0.039825596 -0.008673754 0.07276938 0.023753544
0.08278525 -0.023835307 -0.06317904 0.058545988 0.039154883 -0.06314156 -0.06557575 -0.07574505
0.08677896 0.072564125 0.089499116 0.043426283 0.014483995 -0.08056399 -0.02215652 -0.040617663
0.02961693 0.05119057 0.10572821 -0.030258706 0.10500102 -0.09074302 -0.13168289 -0.11678448
-0.052179422 -0.10791017 -0.08422242 -0.0038875898 0.0111487545 -0.11207748 -0.024867993 0.060102124
-0.0954292 -0.025843114 0.070898 -0.09789436 0.028077118 0.0022190395 -0.005472221 -0.011707634
-0.061459374 0.09745996 0.017943442 0.07442123 0.123163365 0.057557777 -0.033776395 0.048945624
-0.11648831 -0.030767238 -0.047604017 -0.010217011 0.017135546 -0.05174554 -0.11050481 -0.076589175
-0.105121806 0.0308018 0.019802494 0.11076604 0.07045707 -0.009322567 0.13813369 0.12044988
0.120248266 0.01283277 0.044702083 -0.054270755 -0.059880447 0.029791016 0.04995579 -0.020142402
0.0020916841 0.078906484 0.016516263 -0.043191027 -0.07152543 -0.060922466 0.024603864 0.007836105
-0.017387232 -0.05991901 -0.035438884 0.007071676 0.0094316155 0.108014055 -0.05108541 -0.04369137
0.078753844 -0.021279711 -0.04451861 0.05018288 -0.0514491 -0.03208906 -0.039448384 0.07567952
0.044811912 -0.023635618 0.0967719 0.015924297 0.06953587 0.095805675 0.02974638 0.0966973
0.035228927 0.04843363 -0.052271735 0.07599256 0.09511494 0.023636011 -0.028987793 0.032386184
-0.09018985 -0.009338749 -0.07834409 -0.010442786 0.05735405 0.010135404 0.064887226 -0.075630955
0.03165124 -0.04624328 0.034231495 -0.109230995 -0.055586036 0.06886215 0.05696795 -0.057739545
0.0029528074 -0.01725262 -0.11636197 -0.08429747 0.0016554357 -0.14022407 0.032764744 -0.11927747
-0.11932739 -0.081349045 0.029629631 -0.07040954 0.06277372 0.04237999 0.03806286 0.07206953
-0.07747471 -0.0082421005 0.033935126 -0.035749692 -0.050518803 -0.009728918 -0.05183341 -0.08413191
0.074220285 -0.11589488 -0.09705054 -0.10380374 -0.0025255526 -0.0138286725 0.055886447 -0.07729572

model.1.submodule.0.residual.bias f4 [8]
00000000: 5498 d43d 986a 3d3e b0c5 3f3e f329 c23d
00000010: c3ad ddbc c9e2 523d 378d d4bd 03ad 873e
0.10380617 0.18497694 0.18727756 0.094806574 -0.027060395 0.05148581 -0.10378497 0.26499185

model.1.submodule.1.submodule.0.conv.unit0.conv.weight f4 [16, 8, 3, 3]
00000000: c02e adbc 90c8 45bd 17ac 63bd 2c71 92bd
00000010: 4baa 9cbd a545 6ebd dccd d43c 0101 41bd
00000020: 8c08 243d 73ed 0a3b 9ff7 e03c 3404 5cbd
00000030: cadc 1f3d 41ee 953c b802 26bd 7c7c 173d
00000040: 7da0 b23c bd51 74bc fec3 953d 687a 3d3d
00000050: f5eb 553d 1d55 a03d 8ca3 823d 6c57 c7bc
00000060: 150d e73c 1e58 df3c 3d01 963d 8ea7 243d
00000070: d1c2 22bc 1f7a 983d 4c31 4cbc 733d 153d
00000080: 67c0 fcb9 aa76 d03d 6825 dcbc 758a 273d
00000090: 17d0 92bd dd37 5fbd de81 54bd 20a2 48bd
000000a0: 3f7f 44bb ef0f bbbb 9d5e de3c bf7b b4bd
000000b0: 1180 47bd e28e 10bd 449d fabb 21e5 01bd
000000c0: b311 64bd f174 173c d839 a5bd 5ff1 733d
000000d0: 5dab aa3c ef0a 773d 9cf9 803d 214f 35bd
000000e0: 4ff3 893d d4c6 3b3c 095b 9dbb f6c9 7b3d
000000f0: 0fc5 f8bc a23b 983d 0613 01bd 833f 68bc
00000100: 3592 83bc 544b 97b9 95cf b13c af83 983b
00000110: c0a0 003d 3816 92bc 5e73 793d 56ad 91bc
00000120: 5a5d 04bd 0ec8 b1bb ab32 653d a46e 51bb
00000130: 24f8 2e3c acd9 dfbb 0967 e03c 1e57 413d
00000140: b496 3bbd c99b c23b 574f 5eba 3c93 54bd
00000150: 8dfb 63bd b438 4f3c 51e9 193d 3e98 1bbc
00000160: 0409 2b3d 8876 3dbd fa01 b73d 40a4 1ebd
00000170: dc8c 763c 47a2 9bba c8a7 a33d 8683 a83d
00000180: e824 aa3d aa83 9bba f867 1f3d 1eff dcba
00000190: d8a9 983c 4a46 bf3d 9b0f f23d 0340 cdbc
000001a0: c2b9 923c e2c1 dbbc d2c1 ad3d 4600 b43d
000001b0: 3d14 8fbd 6592 b03c 2cc3 843b 7adf fcbd
000001c0: db86 67bd 3658 35bc 076d bbbd 8262 08be
000001d0: 9231 b13b 4791 bbbb 8647 d6ba 230c 97bd
000001e0: be32 e1bb 4e9d 563d 08e8 d3bc a8c3 e73c
000001f0: 86af 2e3d 9b9f 293c a1aa 86bc 5f9d 873d
00000200: bd26 703d b7dd e8bb 91f2 1d3d 7d43 acbc
00000210: 839d 913d cc13 30bc a724 a9bc 4ef0 573a
00000220: 416c c3bc efa5 c53c 772d 2a3d 44fe f43c
00000230: 8bc1 92bd 2e6a 87ba 4889 2e3d a9b6 8dbd
00000240: 40a2 8d3d 8ae6 693c f0a2 99bc 231f 753d
00000250: 4ecf 7b3c b794 083d 9468 023c 8fa5 963d
00000260: c1f9 39bd 9e90 5b3c bd8b 2cbd 76ac 923c
00000270: 40cd b73c c427 ac3c 307b 1f3d 545e 643c
00000280: a201 dabc 83c7 78bd d904 4639 60d4 813d
00000290: 6211 103c 2213 853d 5b06 ebba 26ee 143d
000002a0: 42bb 6c3d 4a58 16bd 68ab c6bc 99e2 3e3d
000002b0: 6c08 58bd e4ad a1bc 26b2 a93d 9ad9 093d
000002c0: 8bf3 fd3c eb85 303d 9c97 11bc 7a13 3bbd
000002d0: 2763 8d3c a4bb 8abc f978 893c c248 ef3c
000002e0: 9173 643d 7b3a e53d a67a 8b3c df6e ff3c
000002f0: a933 573d 3cbb 9bbc f725 11bd de2e 173c
00000300: eeb9 0cbc 98af 8abc 61a8 413c 15fc cc3b
00000310: 8476 85bd 69a2 86bd b1d9 26bb 38d6 14bd
00000320: 9113 21bd eb56 cabb da76 bfbb fea9 16bc
00000330: 5aa3 ad3c dd58 81bd 8010 86bd c5f3 86bd
00000340: 8c89 683c 6dc9 a83d 9c4a dbbb d6e7 a6bc
00000350: 7ed9 0c3d e113 963c bc47 733d 4943 903d
00000360: 40ee 0ebb a307 ba3c 6498 d3bb 09aa c7bd
00000370: cbc9 febc 0113 86bc e56c 84bd c3a3 a13c
00000380: 4530 a0bd 630d 9d3a c738 a9bc de74 de3c
00000390: 3a1c f7bc 7a62 02bd 513b 883d a038 3c3d
000003a0: 9052 b8bc 6e7e 61bd e04f 43bc a302 053c
000003b0: 46ef 963d 6683 7b3d 368b 29bd a271 41bc
000003c0: 7bd0 983d d510 84bc a1c6 23bd 7cca 383c
000003d0: 7a16 6f3d 6e20 c6ba ba3b 903c 9999 0a3d
000003e0: a4db 30bd 3f7f 25bd ef04 6d3b 6c6b 18bd
000003f0: 52ac 01bd 86df 58bd c969 1cbb deaa a8bd
-0.021140456 -0.048286974 -0.05558404 -0.07150492 -0.07649668 -0.058171887 0.025977068 -0.047120098
0.040047213 0.002119866 0.027461825 -0.053714946 0.03902892 0.018302085 -0.040529937 0.036983952
0.021805042 -0.014912066 0.07312773 0.046259314 0.05222698 0.07828734 0.0637885 -0.024333678
0.02820448 0.027263697 0.07324455 0.040198855 -0.009934143 0.07445168 -0.012462925 0.036435556
-0.00048208536 0.101788834 -0.026873305 0.040903527 -0.07168596 -0.054496635 -0.051881664 -0.04898274
-0.002998307 -0.0057086865 0.027144725 -0.08812665 -0.048706118 -0.035292514 -0.007648142 -0.031712655
-0.05568094 0.00924419 -0.080676734 0.05955636 0.020833666 0.06031316 0.06297609 -0.044264916
0.067358606 0.011460979 -0.004802112 0.0614719 -0.030367402 0.07433249 -0.031512283 -0.014175299
-0.016060928 -0.00028857088 0.021705428 0.00465437 0.031403303 -0.01783286 0.06090104 -0.017782848
-0.03231559 -0.0054254597 0.055956524 -0.0031956816 0.0106792785 -0.0068313684 0.027392881 0.047202222
-0.04579802 0.005938981 -0.00084804505 -0.051898226 -0.05565982 0.012647796 0.037576023 -0.009496747
0.041756645 -0.04625562 0.08935924 -0.03873086 0.015048232 -0.0011873924 0.07990986 0.08228211
0.083078206 -0.00118648 0.03891751 -0.0016860699 0.018635675 0.093395784 0.11819383 -0.025054937
0.017910842 -0.026825849 0.08484234 0.08789115 -0.06986282 0.021554181 0.0040515866 -0.12347312
-0.056525093 -0.011068394 -0.09151655 -0.13318828 0.0054075206 -0.0057241055 -0.001634822 -0.07375362
-0.006872504 0.05239611 -0.025867477 0.028291538 0.04264786 0.010352994 -0.016438784 0.06621813
0.058630694 -0.0071065086 0.038561407 -0.021028275 0.07110121 -0.010746907 -0.02064736 0.00082374073
-0.02385533 0.024126975 0.041547265 0.0299064 -0.07165822 -0.0010331327 0.04261139 -0.06919605
0.06915712 0.014276156 -0.018754452 0.059844147 0.0153692495 0.03334495 0.007959504 0.073557965
-0.0454042 0.013401179 -0.042125452 0.017904501 0.022436738 0.021015055 0.03893584 0.013938505
-0.026612107 -0.060737144 0.00018884557 0.063393354 0.008793207 0.0649779 -0.0017930971 0.03635993
0.05779577 -0.036705293 -0.024251655 0.04660282 -0.052742407 -0.019736238 0.08285932 0.033654787
0.03099992 0.043096464 -0.008886244 -0.04567287 0.017259194 -0.016935177 0.016781317 0.029209498
0.055774275 0.11192795 0.017026257 0.031180797 0.0525395 -0.019010179 -0.035436597 0.009227483
-0.008589251 -0.016929433 0.01181993 0.0062556365 -0.06516746 -0.06573946 -0.0025459344 -0.036337107
-0.0393253 -0.006174912 -0.0058430256 -0.009195803 0.021196056 -0.063157775 -0.06546116 -0.06589464
0.01419295 0.08241544 -0.0066922437 -0.02037422 0.034387104 0.018320026 0.059394583 0.070440836
-0.0021809489 0.02270872 -0.0064573754 -0.097492285 -0.031102082 -0.016366484 -0.064660825 0.019731408
-0.07821707 0.0011982139 -0.020656956 0.027155336 -0.030164827 -0.031832196 0.06651939 0.04595244
-0.022500306 -0.055052213 -0.011920899 0.008118304 0.073698565 0.06140461 -0.041392528 -0.011806877
0.074616395 -0.016121307 -0.03998435 0.011278745 0.058371045 -0.0015115866 0.017606605 0.03383789
-0.043178216 -0.040404554 0.003616627 -0.03721182 -0.031658478 -0.052947544 -0.0023866764 -0.08235715

model.1.submodule.1.submodule.0.conv.unit0.conv.bias f4 [16]
00000000: bc52 5ebd c72c 68bd 9b55 84bd 9d46 76bd
00000010: ced6 22bd 1053 903d ba7b 5dbd d644 5bbd
00000020: da73 7bbd 9913 523d 82b1 203d a617 e83b
00000030: 656f 16bd 4335 873d 3de3 2a3c d4e5 253d
-0.05427812 -0.056683328 -0.064616404 -0.060125936 -0.039755635 0.07047093 -0.054073073 -0.053532444
-0.06138978 0.05128822 0.039231785 0.0070828972 -0.036727328 0.06601956 0.010430154 0.040502384

model.1.submodule.1.submodule.0.conv.unit1.conv.weight f4 [16, 16, 3, 3]
00000000: ada3 a939 7ae2 7bbd 2d79 eebc 9a4c 063d
00000010: ffc8 23bd 2c40 b9bc 63ec 663d b1d6 8b3d
00000020: f73b 88bb e845 b9bb 2743 4bbd eafa c4bc
00000030: 84f1 94bb 9aa4 323d 16ee 633d 059f cb39
00000040: 3b80 423d 915d 633c 53de 1bb9 4240 443d
00000050: 3699 203d 88f8 0fbb aeee 913a b854 853c
00000060: 25be 1fbd 275c f0bc fba9 543b 878f d0bc
00000070: a899 37bd 6516 b6bd cf72 22bd fc6f e63c
00000080: 3215 4e3c 8a11 d73b d1bc 8b3c 989e 11bd
00000090: 8a30 95bd 5377 a3bc 6ed6 37bd 89e4 a4bc
000000a0: 278b d0bb c80a 01bd 9178 3e3d 6a09 033d
000000b0: e7e8 943d fa0c 883b 194f 4d3d d878 22bc
000000c0: 52db 86bc 77c6 88ba ae7e 06bd 0dcb 12bd
000000d0: 530d 1ebd 661f d63c 4e53 ecbc 67e8 cb3c
000000e0: dbb4 98bc aadd 5a3d 1b0e bbbc 0af3 1e3d
000000f0: da33 1e3c ed3f ad3c 2f5c ac3c 7ea4 43bd
00000100: b6d7 94bc 38da 2a3c 914b 89bc a9b2 093d
00000110: aafa 7b3d 36ad 943c ee9a 003d 91db 873c
00000120: f526 c03a 1f39 85bc 06ff f5bc 7198 87bd
00000130: f7e0 433c c14a 0fbc e0b5 ca3b 5e17 3fbd
00000140: f80b efbc 97fd 11bd 1940 6a3b f8f7 23bd
00000150: c9e0 ab3c 6124 e7b8 0610 8fbc 5319 593d
00000160: 14ac 393d 9c4e 1f3d 46c7 003b 1c34 b43a
00000170: 2725 87bd c389 22bd 6cac d2bc 1183 c83c
00000180: 4402 073a 71d4 3b3c d5be 823d 4af5 533c
00000190: 0959 37bd b462 613c 46f3 a73c 1502 583d
000001a0: 9d6b 373c 7411 423d b5bd 3c3d a8e4 6f3d
000001b0: 8a24 34bd 9a0a 77bd 14bc 13bd e5d8 88bb
000001c0: 7473 5f3d 4a54 cb3a c9ea 583d 6d87 8f3c
000001d0: 0a51 d73c 0e01 eebc c392 223d 961f bd3c
000001e0: 6066 2dbd ee2f dfbc ef32 acbc cc05 633c
000001f0: 20ec 023d 09ba 21bc ae13 3d3d 5421 13bc
00000200: 95fe c13c b669 913c 317f 513d a9d9 2c3d
00000210: 898f af3c 17ec 903c a90d 433c c30c 123d
00000220: 9bec 70bd f064 69bd ee68 eb3a ed39 f63b
00000230: 77c5 313c ddfe 5b3d 7cde e33b d898 e3bb
00000240: abdf 3b3d a366 48bc f79f 2cbd 112c 4bbc
00000250: 1d9a 8b3c 88b9 41bd a4fa 133d ca64 103d
00000260: dffe a83c 3a64 533d 6c77 323d d1aa 813d
00000270: 720d aa3d a5c3 8a3a e857 823c e30d 2f3d
00000280: 45e8 1f3d d665 d3bb ab93 2abd 373e 48bd
00000290: a4ac b33c 04d8 d13c d1f7 103d 84c9 853b
000002a0: 1297 58bc a310 9abd af66 66bd 99e5 fc3c
000002b0: 54f8 833c 7d43 d6bc e519 613d 8302 62bd
000002c0: 13b4 363c b2d7 6a3d 9062 1bbc b049 f1bc
000002d0: cbe4 913c 4caf 79bc 9bf2 9b3c 4b5a e83b
000002e0: c798 79bc 87de 6ebd e286 9a3d ce8f 3f3d
000002f0: 1714 59bd b2f8 2dbd a8f1 e9ba 76c2 3cbb
00000300: 8fff 8ebc c387 9e3c 9ee8 0abd 14e3 ec3b
00000310: 943e b93d 4973 2d3d 20f7 7d3d 74da 76bc
00000320: c993 f03c a877 2dbc c484 473b 8a34 02bd
00000330: 1a1d e83b 038b ed3b 0177 343d 184c ab3c
00000340: 50b8 223d ede6 073d 3faf ad3c 23cc 0abd
00000350: d367 3ebc 0c2d cf3c ed2f 223d 7c35 30bc
00000360: 66f5 93bd 728e debb f554 853d d844 88bd
00000370: e226 4e3d b7e1 753d 40b7 60bd 4e6d dabc
00000380: 55bc a73c 2265 9a3c 3ad1 563c 0b0f f63c
00000390: 0644 2d3d c1b5 ccbb e2c1 323b d746 883d
000003a0: 886d 0cbd 6bce 3ebb 5c67 523d 8c0e aebc
000003b0: 8429 8a3c 0426 53bd d966 50bc cd3a 9d3c
000003c0: 9c65 0cbc af77 11bd df34 5a3c d6ab 733d
000003d0: 7d4f b63c 7eb1 583b cb38 f03c 68de cdbc
000003e0: 1149 873c f9fc abbb b96f 993c 0e80 a0bb
000003f0: 0913 793c aadb d4bc 9468 f23c 6f34 79bb
0.0003235614 -0.06149528 -0.029110515 0.032787897 -0.039986607 -0.022613607 0.05637778 0.068280585
-0.004157539 -0.0056540854 -0.04962459 -0.024045426 -0.0045453925 0.043614008 0.05564698 0.00038837656
0.04748557 0.013877288 -0.00014864774 0.047912844 0.039208613 -0.0021968205 0.0011133754 0.016275749
-0.038999695 -0.029340817 0.003244995 -0.025459064 -0.044824272 -0.0889099 -0.03966027 0.02812957
0.012578296 0.00656337 0.017057808 -0.035551637 -0.07284649 -0.01995436 -0.04488223 -0.020128505
-0.0063642445 -0.031504422 0.0465017 0.0319914 0.07270985 0.0041519376 0.05012426 -0.009916507
-0.016462002 -0.0010435124 -0.032835655 -0.035838176 -0.038586926 0.026138019 -0.028848317 0.024891092
-0.018640926 0.05343405 -0.022833874 0.038806 0.009655917 0.021148646 0.02104005 -0.047764294
-0.018169265 0.010428004 -0.016759666 0.03361765 0.06151835 0.018149 0.031397752 0.01658419
0.0014660048 -0.016262589 -0.030028831 -0.06620873 0.011955491 -0.00874585 0.006186232 -0.046653144
-0.029180512 -0.035642233 0.0035743772 -0.040031403 0.02098121 -0.000110217145 -0.017463695 0.053002667
0.045330122 0.038893327 0.0019650026 0.001374844 -0.06598883 -0.03968216 -0.025716983 0.02447656
0.0005150179 0.011464224 0.063840546 0.012936899 -0.044762645 0.013756443 0.020501744 0.05273636
0.011195091 0.047379926 0.046079356 0.058567673 -0.04398016 -0.060312845 -0.036068037 -0.0041762465
0.054553464 0.0015512791 0.052958284 0.01752063 0.02628376 -0.029053237 0.039690744 0.02308635
-0.04233396 -0.027244534 -0.02102038 0.013856363 0.031963468 -0.009871014 0.046161346 -0.008980114
0.023680964 0.017750602 0.05114669 0.042199764 0.021430748 0.017690701 0.011905112 0.0356567
-0.058819395 -0.056981027 0.0017960349 0.0075142295 0.010850302 0.053709853 0.0069540124 -0.0069457106
0.045867603 -0.012231502 -0.042144742 -0.012400643 0.01704126 -0.047296077 0.0361277 0.03525237
0.020629345 0.051609255 0.04357092 0.06331409 0.08303346 0.0010586871 0.015911058 0.042737853
0.03903987 -0.006451349 -0.041644733 -0.048887458 0.021932907 0.0256157 0.035392586 0.0040828604
-0.013219612 -0.075227045 -0.05625027 0.0308712 0.016109623 -0.026155228 0.054956336 -0.055178177
0.0111513315 0.05733461 -0.009483948 -0.029454082 0.017809292 -0.015239548 0.019036582 0.007090842
-0.015234179 -0.058317687 0.07545258 0.046768002 -0.052997675 -0.042473502 -0.0017848508 -0.0028802431
-0.017455844 0.019351846 -0.033913247 0.0072292183 0.09045139 0.042346273 0.062003255 -0.015066732
0.029367344 -0.01058761 0.0030444125 -0.031788386 0.0070835473 0.0072492375 0.044058803 0.020910308
0.039726555 0.033179212 0.021201728 -0.033886086 -0.011621433 0.025290035 0.039596487 -0.010754939
-0.072245404 -0.006791883 0.06510345 -0.06653756 0.05033005 0.06002971 -0.05486226 -0.026663449
0.020475546 0.018847052 0.013111407 0.03003647 0.0423012 -0.0062472527 0.0027276208 0.06654137
-0.034284145 -0.0029114734 0.051368102 -0.02124717 0.0168655 -0.051549926 -0.012719833 0.019193077
-0.008569147 -0.03551453 0.0133182695 0.059490047 0.0222547 0.0033064778 0.029323956 -0.025130466
0.016514333 -0.0052486626 0.018730031 -0.004898078 0.015202292 -0.02598365 0.029590882 -0.0038025638

model.1.submodule.1.submodule.0.conv.unit1.conv.bias f4 [16]
00000000: 8218 9abc 95cb 66bc d09a 363d 5d24 0abd
00000010: 0c01 24bd e84e 083c 0bad 49bc a35a 483d
00000020: 111e 473d a1e0 49bd b314 05bc 736c 16bb
00000030: cae3 9cbc 2d92 853c 7786 aa39 6650 ee3c
-0.018810514 -0.014086624 0.044581234 -0.033726085 -0.04004006 0.008319594 -0.012309323 0.048914563
0.048612658 -0.04928649 -0.008122611 -0.0022952824 -0.019151587 0.016305054 0.0003252511 0.029091071

model.1.submodule.1.submodule.0.residual.weight f4 [16, 8, 3, 3]
00000000: 3f97 12bc 707b 943d eca7 4b3c 2eb7 193d
00000010: 026a e03b 8567 0ebb 071d ba3c fa2c 683d
00000020: d6a5 743d a8ed bcbb ff77 0bbd 570f 973c
00000030: 7767 33bd 3ea8 3fba b5ec 10bd 8846 693d
00000040: d328 3a3d ab14 3ebd 3c93 adbd 3b7e 10bb
00000050: 9b89 db3c 0507 95bc 7d95 f0bc e578 47bc
00000060: 92e2 40bd f6b9 7a3c 861e 173d 9eb3 2fbd
00000070: 5a8d 003c 714b ce3c be55 5dbc 60da 13bd
00000080: 7aa0 81bd 4258 5b3d 1871 a2bc 0e8c ff3c
00000090: e0c1 b33d ed4d 4e3d e52f db3d ced2 933d
000000a0: ba5f ce3c 3df0 97bc c797 d4bc dfb5 5d3d
000000b0: c315 533d 7473 9c3c 1c09 a7bb edaa 99bc
000000c0: 1f24 47bc fabc 873d 504a f73c 5eaa c03c
000000d0: e301 bdbc e584 92bc 2ba6 f9bc 7978 ed3b
000000e0: 54fa 2ebd 22ae 383c c550 e33c b2bf 39bc
000000f0: 67e7 a1bc 1bad 263d bbcb 413c 9015 463d
00000100: a15e 71bb 2902 a33d 718a 90bd 4df5 dd3c
00000110: 7b2d 503d 3e88 69bd 5c11 173c ae16 63bd
00000120: b7b8 2b3d 7d40 43bd 82e5 23bb bcb2 3fbd
00000130: 4282 a4bb a638 9dbc ce2a c8bc 9928 de3c
00000140: 396b 1cbd c145 b9ba 75ab 42bd c41a 8bbd
00000150: b0fb 2abd f570 83bd 7fbf f8bc 4595 b83c
00000160: 2de9 04bb 3f9b b3b9 bb43 393d 78d1 1bbd
00000170: 132e 9d3c 33a3 e5bc 0871 8fbd f9cf 7fbd
00000180: 6dd9 0a3d 3939 d6bc 72b0 f43c 18d6 f93b
00000190: b5df 61bd b208 f83c 8c2a 1bbc 4d4f 36bd
000001a0: fd7f 74bd 21d4 953c 9c71 65bd 0b86 25bd
000001b0: efbe 34bd 6a90 7fbc d1bf 723d e589 ccbc
000001c0: a58e 3abd 740a 49bd b352 373d 2f09 063d
000001d0: c855 01bd 5db2 a73b 1c63 d3bc 0eb3 dcbc
000001e0: c6d7 4e3d d397 3f3c a925 75bc 06c7 fc3b
000001f0: 6b76 6f3c 1c31 9f3c 2163 b83c 4aef 043d
00000200: 3c0b 1d3c 8fe9 44bc 6b0c 8abd 082e 82bc
00000210: ffa3 833c d659 a4bc 53d9 c3bc f2c8 563a
00000220: 639c 5f3d 981b cfbb 5af3 5a3d b621 953d
00000230: 5017 993d c1de f3b9 4994 9c39 db0f e8bc
00000240: 7d00 613b 8f9b 35bd 28db a43c 0d5c 853c
00000250: bf06 f03c 6521 45bc 912d 373d 1535 723c
00000260: c385 823c 1e3f 6c3d d5bb dc3c eb4f 243d
00000270: 7dd3 163d de51 763d 34b9 7a3b 3be6 3b3d
00000280: 15c9 04bd d373 3a3c 7b87 87bc 5de9 0d3c
00000290: 283e 4fbd 9b2e 403d 0eba 9bbc 015d e93c
000002a0: c402 06bc 50b1 fd3b 4a3f 28bd fbba 143c
000002b0: 98fb b43c 02d7 6ebd ed8d edbc 37b0 1dbd
000002c0: 78f9 72bd 8392 acbc 54e3 b6bc 3659 5cbd
000002d0: b600 183d a89d aa3d 6894 5c3d c584 30bd
000002e0: a184 453d 6787 543d 39a8 dc3c 8364 e5bc
000002f0: 8c40 d83c cb8b 363b 2812 adbb 7614 1b3d
00000300: ab86 fb3c f30e f23c 690d 953c c3a6 e43b
00000310: e14f 0f3c 1e94 063d 31cd d33c d9a8 29bb
00000320: d75e acbd a116 243c 2a85 03bd 0fb0 36bd
00000330: 6554 90ba 36e4 09bd c6eb 6c3c 907c 363d
00000340: f0b0 61bb 872a 393d f541 1c3d f72f 2b3c
00000350: 5537 c7bc 512c acbc fc27 a53b f4cc 9d3c
00000360: 2315 4cbd 00c2 b23c 6274 073b 194a 50bb
00000370: 1a71 7bbc b5b2 403d c8a7 10bd 0ca7 66bc
00000380: 9f15 533c 5b96 8abb 12d4 c0bc d31b 213d
00000390: 9f30 fc3c abb7 a03c 16ed 11bc a2ac 733b
000003a0: 5c58 653d d358 803d 20d3 25bc feb0 453d
000003b0: 945a 883d 7c51 65bd ac0d 143d d592 8f3b
000003c0: c350 163d b103 583c c8ca 043c ae7c 473d
000003d0: 85b7 603c f89a 4dbd 6371 a2bc 23c0 94bc
000003e0: 69fa 463d b0fe 4dbd 6481 593c b170 41bd
000003f0: f377 15bd 3855 c0bc 4a40 803c dc27 173d
-0.008947193 0.07250106 0.012430172 0.03752821 0.0068485746 -0.0021729183 0.02271892 0.056683518
0.059728466 -0.0057656355 -0.034049984 0.018439932 -0.043799844 -0.0007311142 -0.03538199 0.05695203
0.04544909 -0.04640643 -0.08475348 -0.0022047895 0.026799014 -0.018191824 -0.029368157 -0.01217482
-0.047091074 0.015303126 0.036894344 -0.042895906 0.007846201 0.025182458 -0.013509212 -0.03609693
-0.063294366 0.053550966 -0.019829318 0.031194713 0.08777213 0.050367285 0.107024945 0.07217942
0.02519213 -0.018547172 -0.02595128 0.054128524 0.051534425 0.019098021 -0.0050975215 -0.018758262
-0.012154608 0.06627841 0.030186802 0.023518737 -0.023072189 -0.017885635 -0.030474743 0.0072470275
-0.0427192 0.011271985 0.027748475 -0.011337208 -0.019763662 0.04069243 0.011828358 0.048360407
-0.0036830085 0.079593964 -0.070576556 0.027094508 0.050824624 -0.057014696 0.009220447 -0.05544155
0.041924205 -0.047668923 -0.0025008623 -0.046801314 -0.0050204108 -0.019192051 -0.024434473 0.027118968
-0.038188193 -0.0014135168 -0.047526795 -0.067922145 -0.041743934 -0.06418029 -0.03036475 0.022532115
-0.0020280585 -0.00034257208 0.04523061 -0.03804156 0.019187009 -0.028031921 -0.07003981 -0.062454198
0.03389876 -0.026150333 0.029869292 0.007624399 -0.055144984 0.030277584 -0.009470593 -0.04450922
-0.05969237 0.018289628 -0.05601655 -0.040411036 -0.0441274 -0.015598396 0.05926496 -0.024968097
-0.045546193 -0.049082235 0.044756602 0.032723602 -0.031575948 0.005117698 -0.025804095 -0.026940849
0.050498746 0.011693913 -0.014962592 0.007714155 0.014615635 0.019432597 0.022508206 0.032454766
0.009585198 -0.012018575 -0.0674065 -0.01589109 0.01606941 -0.020062368 -0.02390734 0.00081933953
0.0545925 -0.006320428 0.053454734 0.072818205 0.0747515 -0.00046514536 0.0002986512 -0.028327873
0.0034332566 -0.044337805 0.020124033 0.016279245 0.029300092 -0.012031888 0.04472119 0.014783164
0.015932923 0.05767738 0.026945034 0.04011528 0.036822785 0.06013667 0.0038257362 0.04587386
-0.03241833 0.011380154 -0.016544094 0.008661595 -0.050596386 0.046919446 -0.019009616 0.02848673
-0.00817937 0.0077420846 -0.041075982 0.009077783 0.022092625 -0.058310516 -0.02899834 -0.03849813
-0.059319943 -0.021065956 -0.022325195 -0.053796016 0.037110053 0.08330852 0.05385247 -0.04309537
0.048222188 0.051886942 0.026935684 -0.02800203 0.026397966 0.002785432 -0.0052817054 0.03786131
0.030703863 0.029548144 0.018194871 0.0069778874 0.008747072 0.0328561 0.025854679 -0.0025887995
-0.08416527 0.010015161 -0.032109417 -0.044601496 -0.001101148 -0.033664905 0.01446051 0.044552386
-0.0034437738 0.045206573 0.03814884 0.010448447 -0.024318377 -0.021017225 0.005040167 0.019262768
-0.049824845 0.021821022 0.0020668735 -0.0031782447 -0.01534679 0.04704543 -0.03531626 -0.014077913
0.012883573 -0.0042293495 -0.023538623 0.039333176 0.030784903 0.01961883 -0.008906623 0.0037181755
0.05599247 0.06266942 -0.010121137 0.048264496 0.066579014 -0.055985913 0.03614585 0.0043815174
0.036698114 0.013184474 0.008104987 0.04870289 0.0137156295 -0.050196618 -0.019829458 -0.018158024
0.048578653 -0.050291717 0.013275478 -0.04722661 -0.036491346 -0.023478135 0.015655655 0.036903247

model.1.submodule.1.submodule.0.residual.bias f4 [16]
00000000: ec50 683e 0de3 993c 21a2 843e 1e14 b63b
00000010: 7707 963e 801c 183e 677d 623e bb71 c73d
00000020: b2c8 bf3d 766a 823c 8b22 0a3d e95e a43d
00000030: 06e7 d4bd 7338 23be d97f 863d 4b54 edbc
0.22687119 0.018785024 0.25904945 0.0055565974 0.2930257 0.14854622 0.2211815 0.09738489
0.093644515 0.015919905 0.03372435 0.08025915 -0.10395627 -0.15939502 0.06567354 -0.028970858
